backend/models/caption/models/complete_vit.pth (torch, 795407 bytes, 4 tensors)

fc.0.weight f4 [256, 768]
0	0xbcded4e0	-0.027201116
1	0xbc132397	-0.008980653
2	0x3d6b5f6c	0.05746405
3	0x3c97fd88	0.01855351
4	0xbc10eb96	-0.008845231
5	0xbc2305f3	-0.009950149
6	0xbc933d19	-0.01797347
7	0xbd6d34d3	-0.057911705
8	0xbc2d63a1	-0.010582835
9	0x3d85797f	0.06517314
10	0x3b996645	0.004681381
11	0x3c28867c	0.01028597
12	0xbcf09b79	-0.02937101
13	0x3d87529a	0.06607552
14	0x3b32be76	0.0027274168
15	0xbcdadc6e	-0.026716437
16	0x3d150266	0.03637924
17	0xbceb16db	-0.028697422
18	0xbd1ef269	-0.0388054
19	0xbd2cd47f	-0.04219484
20	0xbcadf8bd	-0.021236772
21	0xbd76d97f	-0.060266014
22	0x3aa25804	0.001238585
23	0xbccb04b1	-0.02478251
24	0x3d169fec	0.036773607
25	0xbcbf2ee8	-0.023337796
26	0xbc97c2cc	-0.018525504
27	0x3c804668	0.015658572
28	0x3b988371	0.004654341
29	0xbd5dcd4c	-0.054150864
30	0x3d232cdf	0.039837714
31	0xbd9978fa	-0.074937776
32	0xbd021728	-0.031760365
33	0xbcdcb5f7	-0.026942236
34	0x3d24b83e	0.04021477
35	0xbd3b2bfa	-0.045696236
36	0x3cb5b427	0.02218063
37	0x3cfb4022	0.03067023
38	0xbd0ba618	-0.034093946
39	0x390c782c	0.00013396208
40	0x3d8602fd	0.06543539
41	0xbd88126a	-0.06644137
42	0x3c14882f	0.009065672
43	0xbd27c233	-0.040956687
44	0x3d144798	0.03620109
45	0xbd214fca	-0.039382733
46	0x3aefe651	0.0018302893
47	0x3b5aaaa2	0.0033365865
48	0x3d331c97	0.043728437
49	0xbc9ca655	-0.019122282
50	0x3d46ccc2	0.048535116
51	0xbd13ce4d	-0.036085416
52	0xbc90f2fa	-0.017693985
53	0xbc5e9a33	-0.013586569
54	0x3caf9252	0.021432076
55	0xbd4516ba	-0.048117377
56	0xbcb3a3b6	-0.02192865
57	0x3da6812a	0.08130105
58	0x3d3ff2d6	0.046862446
59	0xbb6d36dd	-0.003619603
60	0xbc9c0c57	-0.019048853
61	0x3c1cf2f1	0.009579406
62	0x3ca9556e	0.020670619
63	0x3b0e1afd	0.0021683567
64	0x3cbfa86e	0.023395743
65	0x3d3b7d33	0.045773696
66	0xbc86bff2	-0.016448949
67	0x3d45d5e3	0.04829968
68	0x3d25e9b4	0.04050608
69	0x3d881e9b	0.066464625
70	0x3c192b05	0.009348636
71	0xbd1012fd	-0.03517436
72	0x3d0e8d92	0.03480298
73	0x3d51624a	0.051119126
74	0x3bf26295	0.007397006
75	0x3d29d5b5	0.041463573
76	0xbcea12d9	-0.02857344
77	0xbc9ec2ad	-0.019379938
78	0xbd2632e2	-0.04057587
79	0x3d301f6b	0.042998713
80	0x3c7b5868	0.015340902
81	0x3d0bd5a9	0.03413931
82	0x3c5b910a	0.013401279
83	0x3ce71919	0.02821021
84	0xbcb158f9	-0.02164887
85	0x3b48f117	0.003066128
86	0xbc134ce9	-0.008990505
87	0x3b6a0da4	0.0035713697
88	0xbc5258de	-0.01283857
89	0xbcb1268b	-0.021624824
90	0xbd4c038e	-0.049808078
91	0xbcb6c8fa	-0.02231263
92	0xbd6eaad5	-0.058268387
93	0x3c4269c2	0.011866035
94	0x3b3aa916	0.002848213
95	0xbce5dc97	-0.028059287
96	0xba430f12	-0.00074409053
97	0xbc75dcf1	-0.01500629
98	0xbcd599a4	-0.026074238
99	0x3bc6f6a2	0.0060718814
100	0xbcc455bd	-0.023966664
101	0xbd1a0f20	-0.03761208
102	0xbad176af	-0.0015980805
103	0xbb584f33	-0.003300619
104	0xbca24f5f	-0.019813238
105	0x3ccd2910	0.025043994
106	0x3c65dfec	0.014030438
107	0xbcc48c4c	-0.02399268
108	0xbd0a177f	-0.033713814
109	0xbceb5733	-0.028728103
110	0x3d2d4872	0.042305417
111	0x3c3b8d9a	0.011447335
112	0x3ae9479d	0.0017797832
113	0xbab7f535	-0.0014034869
114	0xbd72a2f1	-0.059237424
115	0x3d25a008	0.04043582
116	0xbac958a6	-0.0015361502
117	0xba13014d	-0.0005607799
118	0xbcaa098f	-0.020756511
119	0x3b17d5af	0.0023168137
120	0xbbdb5e6c	-0.0066946056
121	0x3ced5a86	0.028973829
122	0xbc28c9b8	-0.010302
123	0x3c2e1df3	0.010627258
124	0x3d067e2e	0.032835178
125	0xbc39372f	-0.011304661
126	0x3c1ca811	0.0095615545
127	0xbd14cdb9	-0.036329005
128	0x3cd29564	0.025706
129	0xbac586df	-0.0015070102
130	0xb918294a	-0.00014511231
131	0x3d607b11	0.054804865
132	0x3cd7560b	0.026286146
133	0x3c265049	0.010150977
134	0x3c4fc368	0.012680866
135	0x3c728389	0.014801868
136	0xbbff567b	-0.0077922917
137	0xbce6193d	-0.028088206
138	0xbd3ee21b	-0.04660235
139	0x3c63d181	0.01390493
140	0xbd3578a6	-0.044304512
141	0x3bb0f1fa	0.0053999396
142	0xbc0370c5	-0.008022492
143	0x3cb591cc	0.022164248
144	0xbc30a661	-0.010781855
145	0x3d299dab	0.04141013
146	0x3bd1af2a	0.006399055
147	0xbc03af78	-0.0080374405
148	0xbd34ff44	-0.044188753
149	0xbd2068ea	-0.039162554
150	0xbc66695d	-0.0140632065
151	0xbc941173	-0.018074727
152	0xbd37a8a2	-0.044838555
153	0x3cd7950f	0.026316194
154	0x3cc715d3	0.024302399
155	0x3d197d9c	0.037473306
156	0x3c88545b	0.016641786
157	0x3c93906e	0.018013205
158	0x3c3f22f4	0.011666048
159	0x3c54f82d	0.012998623
160	0xbd21ee7a	-0.03953407
161	0x3ceacf80	0.028663397
162	0x3d466420	0.04843533
163	0x3cb66852	0.02226654
164	0x3d35eeaa	0.04441706
165	0xbbd49307	-0.0064872536
166	0xbd38d413	-0.045124125
167	0x3d19ac01	0.03751755
168	0xbbd26042	-0.006420166
169	0xbd030ec2	-0.031996496
170	0xbd7f3e7e	-0.062315457
171	0x3d2c97a4	0.042136803
172	0x3cb57620	0.022151053
173	0x3c3de17c	0.011589404
174	0xbc27ddb6	-0.010245731
175	0x3a39f90c	0.0007094301
176	0xbc11a87b	-0.0088902665
177	0x3d0c9964	0.034325972
178	0x3cd0775f	0.025447546
179	0x3d2182e0	0.039431453
180	0x3c94bce7	0.018156482
181	0x3c2e19da	0.010626281
182	0x3c173623	0.009229216
183	0x3cf3dbb1	0.029767843
184	0xbc2a8afa	-0.010409111
185	0x3cd7cff4	0.026344277
186	0xbcf9c4f4	-0.030489422
187	0x3c07af47	0.0082815355
188	0xbc433773	-0.011915076
189	0xbca3c8a5	-0.019993136
190	0xbca2362e	-0.019801226
191	0x37d6ca52	2.5605e-05
192	0x3ca0209a	0.019546796
193	0x3c1c30b0	0.009533092
194	0x3d3d7e5f	0.046263095
195	0xbd28953e	-0.041157953
196	0xbcb42fae	-0.021995392
197	0xbd07e310	-0.033175528
198	0xbd5a99a7	-0.05336919
199	0xbce339ee	-0.027737584
200	0x3d61f232	0.055162616
201	0xbb762fe7	-0.0037565173
202	0x3cd26080	0.02568078
203	0x3d0548bf	0.03254008
204	0x3c115c86	0.008872157
205	0xbbc27367	-0.005934167
206	0xbc228df9	-0.009921544
207	0xbd3961e8	-0.045259386
208	0xbc9bea96	-0.019032758
209	0xbcf655cd	-0.03007021
210	0xbc9d689a	-0.019214917
211	0xbd58c4ea	-0.052922167
212	0xbb6fd74b	-0.003659683
213	0x3ca034d6	0.019556444
214	0xbccf8191	-0.025330337
215	0x3cdd8ae9	0.027043777
216	0xbd13cff4	-0.03608699
217	0xbd627890	-0.05529076
218	0xbcd07310	-0.025445491
219	0xbc69fb0a	-0.014281044
220	0x3c4b4666	0.012406921
221	0xbcaf2ac7	-0.021382703
222	0xbc81ad49	-0.0158297
223	0xbc651a11	-0.0139832655
224	0x3c9ffb59	0.019529032
225	0xbd2e69ea	-0.042581476
226	0x3d1fc409	0.039005313
227	0xbcf80772	-0.030276988
228	0x3add587f	0.0016887336
229	0x3b53565a	0.0032247514
230	0xbd17721c	-0.036974058
231	0x3d8596b9	0.06522889
232	0xbabd7388	-0.0014453987
233	0x3d341b8c	0.043971583
234	0x3d64cf93	0.05586202
235	0x3d095b67	0.033534434
236	0xbd3d7a9b	-0.046259504
237	0xbc38a00d	-0.011268628
238	0x3c3619a0	0.011114508
239	0xbc142cbc	-0.009043869
240	0xbc8a9f79	-0.016921746
241	0x3caebe1e	0.02133089
242	0xbd5e1ab6	-0.054224692
243	0xb980ef06	-0.0002459215
244	0xbd9a4abf	-0.07533788
245	0x3dc95d83	0.09832289
246	0x3d405f33	0.04696579
247	0x3c1547e7	0.009111381
248	0xbd5816e7	-0.052756216
249	0xbd249663	-0.040182482
250	0xbd828b4e	-0.063742265
251	0x3c00a34e	0.007851435
252	0xbc573329	-0.013134756
253	0xbc12c4cc	-0.008958053
254	0x3b421f8e	0.002962086
255	0xbc05831d	-0.008148936

fc.0.bias f4 [256]
0	0x3c7769fe	0.015100954
1	0xbd145dab	-0.03622214
2	0xbca03453	-0.0195562
3	0x3d553a3e	0.052057497
4	0x3b95bee7	0.0045698765
5	0xbb6b74da	-0.0035927803
6	0x3d288498	0.041142076
7	0x3ceb196e	0.02869865
8	0xbc70a681	-0.014688135
9	0xbc0019e7	-0.007818676
10	0x3b688eb8	0.0035485458
11	0xbc40b274	-0.011761297
12	0x3d1d5fd7	0.038421478
13	0xbc238252	-0.009979801
14	0xbcbb4d57	-0.022864027
15	0x3cae8b61	0.021306695
16	0x3c5b5720	0.013387471
17	0xb9ad734e	-0.0003308304
18	0xbc34a852	-0.011026459
19	0x3c642096	0.013923785
20	0x3d009c53	0.031399082
21	0x3b78c1c0	0.003795728
22	0x3c9b4cf3	0.01895759
23	0x3d714c36	0.05891057
24	0x3c4ae23d	0.012383041
25	0x3c7d26a8	0.015451111
26	0x3d1b3bfe	0.03789901
27	0x3cac44f9	0.021028982
28	0x3a198b18	0.00058572134
29	0x3d4e2a03	0.050333034
30	0x3b7dc94e	0.0038724723
31	0x3c408c2e	0.011752171
32	0x3d516d9e	0.05112993
33	0x3d31925e	0.043352477
34	0x3d00f3e4	0.031482592
35	0x3d27cfe1	0.040969733
36	0xbc83c080	-0.016083002
37	0x3c2944b2	0.01033132
38	0x3d1bc8c0	0.038033247
39	0x3cd055c8	0.025431529
40	0x3c4f29f1	0.012644277
41	0x3d5a1a46	0.053247713
42	0xbc4cc7e4	-0.0124988295
43	0xbc940b56	-0.018071812
44	0x3d2ecea0	0.04267752
45	0x3cffce38	0.031226262
46	0x3c2bac45	0.010478084
47	0x3d1b0bba	0.03785298
48	0xbc8ce713	-0.017200029
49	0xbd0e8008	-0.03479007
50	0xbb08f7a0	-0.002089955
51	0x3d3260da	0.043549396
52	0x3d41c067	0.04730263
53	0xbb4122f7	-0.0029470304
54	0x3d6bb8cb	0.05754928
55	0x3d158d46	0.036511682
56	0x3ca7001e	0.020385798
57	0xbc9f4d0c	-0.019445919
58	0x3aedd307	0.0018144556
59	0x3c129224	0.008945975
60	0x3d0f56bc	0.034994826
61	0xbade39f8	-0.0016954532
62	0x3d5d1577	0.05397555
63	0xbcddf4e3	-0.02709431
64	0x3d2a6edf	0.04160964
65	0xbcedcedc	-0.029029302
66	0x3d6114dd	0.054951537
67	0x3a42db42	0.00074331847
68	0x3cc966b7	0.024585111
69	0x3ce9c98f	0.028538493
70	0x3d83863d	0.06422088
71	0x3bc11fa9	0.0058936668
72	0x3d2c8ac8	0.04212454
73	0x3cfd938d	0.030954147
74	0x3cd4b45a	0.025964905
75	0x3aa94b51	0.0012916123
76	0x3d12e4cf	0.03586274
77	0x3ce4693a	0.027882207
78	0x3c7c9c76	0.015418163
79	0x3be03dbf	0.006843298
80	0xbc740b7d	-0.014895317
81	0x3d324877	0.04352614
82	0x3d60af64	0.054854766
83	0x3d075e46	0.03304889
84	0x3b8c3f32	0.0042799944
85	0x3cd4e6c0	0.025988936
86	0x3d4c148e	0.04982429
87	0x3b9f52fc	0.0048621874
88	0xbc845db9	-0.016157972
89	0x3c345eb9	0.011008912
90	0xbb811da4	-0.003940301
91	0x3ca0ccdf	0.01962894
92	0xbc174dce	-0.009234859
93	0x3aa2d23d	0.0012422275
94	0x3be3fffe	0.006958007
95	0x3ca1aad9	0.019734787
96	0x391f4320	0.00015188428
97	0x3c66a0ea	0.014076451
98	0x3bfb1837	0.0076627987
99	0x3d1bc35a	0.0380281
100	0x3bc50965	0.006013083
101	0xbcbe756d	-0.023249352
102	0x3d10c320	0.035342336
103	0xbc4931d6	-0.012279948
104	0x3c9f30c1	0.019432427
105	0x3cdc4227	0.026887013
106	0x3cdc5cc1	0.026899697
107	0x3d2ddf41	0.04244924
108	0x3d553b1f	0.052058335
109	0x3cc7e8dc	0.024403028
110	0x3c69368b	0.014234195
111	0xbd13e9a2	-0.03611148
112	0xbb53a80d	-0.003229621
113	0x3d0b945b	0.03407703
114	0x3c269a76	0.010168662
115	0x3cd9c78a	0.026584405
116	0x3be3d2e1	0.006952629
117	0x3d7db808	0.061943084
118	0x3c4956d5	0.012288769
119	0xbb5faa77	-0.0034128705
120	0x3b315211	0.0027056972
121	0x3d59cc7b	0.053173523
122	0x3d4adcba	0.049526908
123	0xbc05dae1	-0.008169861
124	0x3d23f1ec	0.040025637
125	0x3c98cba2	0.018651787
126	0x3d259fa3	0.040435445
127	0x3c6b4e09	0.014361867
128	0xbcdf11f1	-0.027230235
129	0x3d6b796b	0.05748884
130	0xbb9528e9	-0.004551996
131	0x3d03946b	0.032123964
132	0xbc58649c	-0.013207581
133	0x3c1b6973	0.00948559
134	0x3d4e7d46	0.05041244
135	0x3c287921	0.010282786
136	0x3d0f1ee6	0.034941576
137	0x3c9555a7	0.018229319
138	0x3cea25ab	0.028582415
139	0x3d4f24b7	0.050572123
140	0x3c80fcfd	0.015745634
141	0xbc4aeba2	-0.012385281
142	0xbb9316b0	-0.0044887885
143	0x3c9a9241	0.018868567
144	0x3cd459d2	0.025921736
145	0x3d507ee4	0.050902262
146	0xbd033ba4	-0.0320393
147	0x3cf755ea	0.030192334
148	0x3be047aa	0.0068444805
149	0x3d34e7e0	0.044166446
150	0x3c68992d	0.014196676
151	0x3d472fc3	0.048629533
152	0x3cc0e8ea	0.023548562
153	0xbb1ae717	-0.0023636275
154	0x3d6f353c	0.058400378
155	0x3c801b2b	0.015637955
156	0xbd0435ee	-0.032277994
157	0x3d0b0b81	0.033946518
158	0xbca21208	-0.019783989
159	0xbb28c746	-0.0025753542
160	0xbca1176a	-0.019664485
161	0x3b1588ef	0.0022817214
162	0x3cfe9a6b	0.031079492
163	0x3cc7dbbb	0.024396768
164	0x3d697dc3	0.0570047
165	0x3d61782d	0.05504625
166	0x3d30e6e6	0.043188952
167	0x3d7928d8	0.060829967
168	0x3d8556d5	0.065107025
169	0x3bae8c8a	0.005326812
170	0xbc8c5ddc	-0.0171346
171	0xba63e280	-0.0008693114
172	0x3d2c7aaf	0.042109188
173	0x3d31ffd6	0.043456875
174	0x3cabae92	0.020957265
175	0x3cdbfb29	0.026853161
176	0x3ce085e0	0.027407587
177	0x3d378590	0.04480511
178	0xba81b4d7	-0.0009895813
179	0xbce7accb	-0.028280636
180	0xbd109425	-0.03529753
181	0x3d10ba0a	0.03533367
182	0x3d03b1a6	0.03215184
183	0x3bafc0ff	0.005363583
184	0x3d8dfa7e	0.06932543
185	0x3d02749f	0.0318495
186	0xbb4f4771	-0.0031628276
187	0x3cfe6723	0.031055039
188	0x3d5f4afc	0.05451487
189	0xbcf4c355	-0.029878298
190	0x3d0ee7f3	0.034889173
191	0x3d117655	0.03551324
192	0xbb5b439f	-0.0033457053
193	0xba8d19cb	-0.0010765133
194	0xbc7964f7	-0.015221826
195	0x3cdbe0c1	0.02684057
196	0xbb857130	-0.004072331
197	0x3d30770e	0.04308229
198	0xbbcf6ebb	-0.006330339
199	0x3d326fc1	0.043563608
200	0x3c68a48a	0.014199385
201	0x3d980262	0.074223295
202	0x3d26fe69	0.04076997
203	0xbcb32c75	-0.021871785
204	0x3d1c91d0	0.038224995
205	0x3d425aca	0.047449864
206	0xbb24c42f	-0.0025141349
207	0x3c40fc03	0.011778834
208	0xbc2d6809	-0.010583886
209	0x3d034b6f	0.03205436
210	0xbb80885d	-0.003922506
211	0xbcc3a197	-0.023880763
212	0x3c5b7e11	0.013396756
213	0xbc2f3230	-0.010693118
214	0x3cc0f632	0.023554895
215	0x3d39ff81	0.045409683
216	0x3d4e85bb	0.050420504
217	0x3d12ea70	0.03586811
218	0x3ce25874	0.027630068
219	0x3bcbfd75	0.006225283
220	0x3d0416b6	0.03224822
221	0x3d5b565c	0.053549156
222	0xbc4ec41f	-0.012620001
223	0x3c0a3830	0.008436248
224	0x3c8c5608	0.017130867
225	0x3d5321cf	0.051545914
226	0xbcb36322	-0.021897856
227	0x3d7887e3	0.060676467
228	0x3be37355	0.006941239
229	0x3d8b2904	0.067949325
230	0x3d6b929e	0.057512872
231	0xbccdff46	-0.025146138
232	0x3d0a3e74	0.033750966
233	0xbcd72de1	-0.026266994
234	0x3d491d89	0.049100433
235	0xbccfce35	-0.025366882
236	0x3c8c7398	0.017144963
237	0xbcd1f1fe	-0.025628086
238	0x3c464161	0.0121005485
239	0xbaecb10a	-0.0018058133
240	0x3bc98cb9	0.0061508087
241	0x3cfbb3aa	0.030725319
242	0xbc8ee858	-0.017444775
243	0x3cd0969e	0.025462445
244	0x3d5ec7f9	0.054389928
245	0x3d18754f	0.03722125
246	0x3d4bb6d1	0.049734894
247	0x3d1fadb4	0.038984016
248	0x3ce0b024	0.02742774
249	0x3d5adab9	0.053431246
250	0x3d04e211	0.032442156
251	0x3cb98dfa	0.022650708
252	0x3d521b29	0.051295433
253	0xbc693954	-0.0142348595
254	0x3d000a40	0.031259775
255	0x3c01eb75	0.0079296725

fc.3.weight f4 [4, 256]
0	0xbd590c65	-0.052990336
1	0xbc28327c	-0.010265943
2	0xbc9d2869	-0.019184308
3	0xbd8a5cc4	-0.06755975
4	0x3d9db291	0.077000745
5	0xbd884e13	-0.066555165
6	0xbc30a8f5	-0.01078247
7	0x3d8ffc28	0.07030517
8	0xbdb149aa	-0.086566284
9	0xbd0bd9ad	-0.03414314
10	0x3d8b28cc	0.06794891
11	0xbe0a4f55	-0.13506825
12	0xbd694317	-0.056948747
13	0x3d2ce174	0.042207196
14	0xbd48026e	-0.048830442
15	0x3a493fda	0.0007677056
16	0x3d4d6040	0.05014062
17	0xbd4be416	-0.049778067
18	0xbcbe62a6	-0.023240399
19	0x3d3e6673	0.046484422
20	0xbd03b081	-0.03215075
21	0xbd962f74	-0.0733327
22	0xbdd7a290	-0.10529053
23	0xbc9baca2	-0.019003216
24	0x3d22f90d	0.039788295
25	0xbddb78c4	-0.107163936
26	0x3db891ff	0.090122215
27	0xbd056549	-0.032567296
28	0xbc9547f0	-0.018222779
29	0x3db6a8a3	0.08918884
30	0xbd948693	-0.072522305
31	0x3d151305	0.03639509
32	0xbdc1f623	-0.09470775
33	0xbca31ef9	-0.01991223
34	0x3ba50adf	0.0050366963
35	0x3c5f7149	0.013637849
36	0xbdf8ad0a	-0.121423796
37	0xbdb602a5	-0.08887223
38	0xbd9289a3	-0.07155158
39	0x3d8b3317	0.06796854
40	0xbda0baed	-0.07848153
41	0x3cb3a7f6	0.021930676
42	0xbdc29c1d	-0.095024325
43	0x3c85fad6	0.01635496
44	0xbd997bdf	-0.0749433
45	0x3d39931c	0.04530631
46	0xbdd064c1	-0.10175467
47	0xbdb6289f	-0.088944666
48	0x3c979aa4	0.018506356
49	0xbca649e1	-0.0202989
50	0xbdd27ea1	-0.10278059
51	0x3d75da30	0.060022533
52	0x3c3535fa	0.011060232
53	0x3c9736da	0.018458772
54	0x3c9ab9f0	0.01888749
55	0xbc85584d	-0.016277457
56	0x3d5df9af	0.054193195
57	0x3da2ab7a	0.07942863
58	0xbd7a07ef	-0.061042722
59	0x3ca11768	0.019664481
60	0xbda362df	-0.079778425
61	0xbd17941e	-0.03700649
62	0xbcb8ea59	-0.022572683
63	0xbd8b4715	-0.06800667
64	0xbdb54195	-0.088503994
65	0xbd310d43	-0.043225538
66	0x3db21e6e	0.0869721
67	0xbd9fed86	-0.07808976
68	0x3c2d31f4	0.010570992
69	0x3dc1ece9	0.09469015
70	0x3da1cbfc	0.07900235
71	0xbdad066f	-0.08448493
72	0x3c27287e	0.010202525
73	0x3d3087a7	0.04309812
74	0xbc15ecb1	-0.00915067
75	0xbc38738c	-0.011258017
76	0xbd83512c	-0.06411967
77	0x3da10794	0.078627735
78	0xbde35183	-0.110995315
79	0xbd9b23a5	-0.07575158
80	0x3d5c60f2	0.05380339
81	0xbca76e60	-0.020438373
82	0xbe1536de	-0.14571711
83	0xbdb5a8e4	-0.08870104
84	0x3c8c00fb	0.017090311
85	0x3d97b421	0.07407404
86	0x3d6b1200	0.057390213
87	0xbd85080a	-0.06495674
88	0xbd65f96b	-0.056146067
89	0xbe1147ba	-0.14187518
90	0xbd17cfed	-0.037063528
91	0x3b030b31	0.0019995684
92	0xbb8bdcf2	-0.004268282
93	0xbc91d53f	-0.017801879
94	0xbdeec7ff	-0.1165924
95	0x3da96521	0.08271242
96	0xbd955f2c	-0.07293543
97	0xbc80bd27	-0.015715195
98	0x3d26dd87	0.04073861
99	0x3d30d45e	0.04317128
100	0x3cede143	0.029038077
101	0xbd1ee0d7	-0.038788643
102	0xbdb22567	-0.0869854
103	0xbddd673c	-0.10810706
104	0x3d65b278	0.056078404
105	0xbc2fce48	-0.010730334
106	0xbdec0ba2	-0.11525656
107	0x3d23f800	0.040031433
108	0xbd912df5	-0.07088844
109	0x3dc80fb5	0.09768621
110	0xbda9d43b	-0.08292433
111	0x3d394816	0.045234762
112	0x3c758879	0.014986151
113	0x3c57f2e0	0.0131804645
114	0x3d9aba1f	0.07555031
115	0xbd78a1e2	-0.06070126
116	0xbcab796a	-0.020931918
117	0x3dbcffc9	0.09228475
118	0x3d75dead	0.060026813
119	0xbbd54ec4	-0.0065096337
120	0xbd7391d2	-0.059465237
121	0xbd56e7f4	-0.0524673
122	0x3d53bef6	0.051695786
123	0x3daa42cc	0.08313522
124	0x3d8324a2	0.064034715
125	0xbd329cda	-0.043606617
126	0x3da71152	0.081576005
127	0x3d9fbe63	0.07799985
128	0xbd17872f	-0.036994155
129	0x3d78c32e	0.060733013
130	0xbda040df	-0.07824873
131	0xbda3a7ea	-0.079910114
132	0x3d5b29bb	0.053506594
133	0xbd26b7f5	-0.04070278
134	0xbdbd0792	-0.092299595
135	0xbdb189bc	-0.08668849
136	0xbe04a1c8	-0.1295234
137	0xbcd7e8bb	-0.026356092
138	0xbd828f4d	-0.06374989
139	0xbe08a728	-0.13345015
140	0xbd82a79c	-0.06379625
141	0xbdccfd27	-0.100092225
142	0x3da55c85	0.08074287
143	0xbd692313	-0.056918215
144	0x3d9588d4	0.073014885
145	0x3c3c0ae4	0.011477206
146	0x3d68f1fa	0.05687139
147	0x3da337af	0.07969605
148	0xbdccfb40	-0.1000886
149	0xbc811810	-0.015758544
150	0xbc2bac5e	-0.010478107
151	0xbdaffc33	-0.08593025
152	0xbd802b93	-0.06258311
153	0x3dad09be	0.08449124
154	0xbe0cd076	-0.13751397
155	0xbdb803c2	-0.08985092
156	0x3c5f1804	0.013616566
157	0xbdfd69c5	-0.123736896
158	0x3d90cb02	0.07069971
159	0xbd6b2d5a	-0.057416297
160	0x3cd6d801	0.026226046
161	0x3d83feb7	0.064450674
162	0xbd884abc	-0.066548795
163	0x3db9ded1	0.09075702
164	0x3d7ba24c	0.061434075
165	0x3d30f8be	0.04320597
166	0xbdcf7d25	-0.10131291
167	0xbdd54777	-0.104140215
168	0x3cf7fd81	0.030272247
169	0xbdd8210b	-0.105531774
170	0xbd436431	-0.04770297
171	0xbced2194	-0.028946675
172	0x3da56b03	0.080770515
173	0xbcc5905d	-0.02411669
174	0x3d6d637a	0.057956196
175	0x3b7920ab	0.0038013856
176	0xbd7b6595	-0.061376173
177	0x3d234c1c	0.039867505
178	0x3c8b2884	0.016987093
179	0xbdefe040	-0.11712694
180	0xba01df41	-0.0004954227
181	0xbddfc8be	-0.109269604
182	0xbc8b70e2	-0.0170216
183	0xbda24e64	-0.07925108
184	0x3d8929fb	0.0669746
185	0xbd6d220b	-0.057893794
186	0xbd584b11	-0.052805964
187	0x3cc530e8	0.024071172
188	0x3d3857b9	0.045005534
189	0xbd82f362	-0.06394078
190	0x3d94df73	0.07269182
191	0xbd26fbe2	-0.040767558
192	0x3d72a0cf	0.05923539
193	0x3dc2336b	0.094824634
194	0xbd7bcd50	-0.061475098
195	0xbc8e0521	-0.01733643
196	0xbd7641e1	-0.06012142
197	0xbddb515a	-0.10708876
198	0xbd1d775c	-0.038443908
199	0xbde58827	-0.112076096
200	0x3dc2b25c	0.095066756
201	0x3d91fe28	0.071285546
202	0x3da4f65e	0.08054803
203	0x3cbb1c29	0.022840576
204	0x3d536e85	0.05161907
205	0x3d27a3ba	0.040927626
206	0xbe00d2d1	-0.1258042
207	0xbdf054db	-0.11734935
208	0xbdb47f61	-0.08813358
209	0xbd78df07	-0.06075957
210	0xbd474385	-0.048648376
211	0x3d325aa2	0.043543465
212	0x3d86cf6e	0.06582533
213	0xbd2055cf	-0.039144333
214	0x3d882d09	0.06649215
215	0xbd6130b4	-0.054978088
216	0x3d9e358d	0.07725058
217	0xbcd61dfc	-0.026137345
218	0xbdb4083e	-0.087906346
219	0xbd60f6e7	-0.054922964
220	0xbd15f7fd	-0.036613453
221	0xbd5226ac	-0.05130641
222	0xbd9760d5	-0.07391516
223	0x3d898bf9	0.06716151
224	0xbd389a80	-0.045069218
225	0x3d7f30a2	0.06230224
226	0xbd5888a7	-0.052864697
227	0x3d6cc5c1	0.05780578
228	0x3d330780	0.043708324
229	0x3c9fbbb2	0.01949868
230	0xb9a6a412	-0.0003178423
231	0xbd95d87e	-0.07316683
232	0xbd77be9f	-0.060484525
233	0xbc466d98	-0.01211109
234	0x3db2c3e5	0.0872877
235	0xbbd3f6b7	-0.0064686197
236	0xbd841283	-0.06448843
237	0xbbc2247a	-0.0059247585
238	0xbda1bf9b	-0.07897874
239	0xbdfb3466	-0.122658536
240	0xbd18be1d	-0.03729068
241	0xbddd0571	-0.107920535
242	0xbd88e326	-0.0668395
243	0x3d817c44	0.0632253
244	0xbdbe3854	-0.092880875
245	0xbdaf7a10	-0.085682034
246	0x3c6fe4d7	0.014641962
247	0xbd9adf9e	-0.07562183
248	0x3d764e7d	0.060133446
249	0x3d4d25f3	0.05008502
250	0xbdd3d443	-0.1034322
251	0x3d583680	0.05278635
252	0x3d294214	0.041322783
253	0xbdf3d459	-0.119057365
254	0x3c5c2248	0.013435908
255	0x3c3a1814	0.01135828

fc.3.bias f4 [4]
0	0xbce96048	-0.028488293
1	0xbc15486e	-0.009111507
2	0x3cc2347d	0.023706669
3	0xbc156feb	-0.009120922
